Model: "model_5"
__________________________________________________________________________________________________
Layer (type)                    Output Shape         Param #     Connected to                     
==================================================================================================
input_4 (InputLayer)            (None, 277, 76)      0                                            
__________________________________________________________________________________________________
conv_1 (Conv1D)                 (None, 269, 9)       6165        input_4[0][0]                    
__________________________________________________________________________________________________
input_5 (InputLayer)            (None, 978, 2)       0                                            
__________________________________________________________________________________________________
conv_2 (Conv1D)                 (None, 261, 9)       738         conv_1[0][0]                     
__________________________________________________________________________________________________
flatten_1 (Flatten)             (None, 1956)         0           input_5[0][0]                    
__________________________________________________________________________________________________
input_6 (InputLayer)            (None, 26, 1000)     0                                            
__________________________________________________________________________________________________
conv_3 (Conv1D)                 (None, 251, 10)      1000        conv_2[0][0]                     
__________________________________________________________________________________________________
dense_3 (Dense)                 (None, 256)          500992      flatten_1[0][0]                  
__________________________________________________________________________________________________
lstm_1 (LSTM)                   (None, 26, 256)      1287168     input_6[0][0]                    
__________________________________________________________________________________________________
flatten_11 (Flatten)            (None, 2510)         0           conv_3[0][0]                     
__________________________________________________________________________________________________
dropout_1 (Dropout)             (None, 256)          0           dense_3[0][0]                    
__________________________________________________________________________________________________
lstm_2 (LSTM)                   (None, 26, 128)      197120      lstm_1[0][0]                     
__________________________________________________________________________________________________
dense_1 (Dense)                 (None, 435)          1092285     flatten_11[0][0]                 
__________________________________________________________________________________________________
dense_4 (Dense)                 (None, 128)          32896       dropout_1[0][0]                  
__________________________________________________________________________________________________
lstm_3 (LSTM)                   (None, 64)           49408       lstm_2[0][0]                     
__________________________________________________________________________________________________
z_mean (Dense)                  (None, 56)           24416       dense_1[0][0]                    
__________________________________________________________________________________________________
z_log_var (Dense)               (None, 56)           24416       dense_1[0][0]                    
__________________________________________________________________________________________________
dropout_2 (Dropout)             (None, 128)          0           dense_4[0][0]                    
__________________________________________________________________________________________________
dense_6 (Dense)                 (None, 56)           3640        lstm_3[0][0]                     
__________________________________________________________________________________________________
lambda (Lambda)                 (None, 56)           0           z_mean[0][0]                     
                                                                 z_log_var[0][0]                  
__________________________________________________________________________________________________
dense_5 (Dense)                 (None, 56)           7224        dropout_2[0][0]                  
__________________________________________________________________________________________________
dense_7 (Dense)                 (None, 56)           3192        dense_6[0][0]                    
__________________________________________________________________________________________________
concatenate_1 (Concatenate)     (None, 168)          0           lambda[0][0]                     
                                                                 dense_5[0][0]                    
                                                                 dense_7[0][0]                    
__________________________________________________________________________________________________
dense_8 (Dense)                 (None, 1024)         173056      concatenate_1[0][0]              
__________________________________________________________________________________________________
dropout_3 (Dropout)             (None, 1024)         0           dense_8[0][0]                    
__________________________________________________________________________________________________
dense_9 (Dense)                 (None, 1024)         1049600     dropout_3[0][0]                  
__________________________________________________________________________________________________
dropout_4 (Dropout)             (None, 1024)         0           dense_9[0][0]                    
__________________________________________________________________________________________________
dense_10 (Dense)                (None, 512)          524800      dropout_4[0][0]                  
__________________________________________________________________________________________________
dropout_5 (Dropout)             (None, 512)          0           dense_10[0][0]                   
__________________________________________________________________________________________________
dense_11 (Dense)                (None, 1)            513         dropout_5[0][0]                  
==================================================================================================
Total params: 4,978,629
Trainable params: 4,978,629
Non-trainable params: 0
__________________________________________________________________________________________________
(18815, 277, 76)
(18815, 978, 2)
(18815, 26, 1000)
(18815,)
----START TRAINING----
…
