…
Train, Val, Test shapes - y: ((12996,), (2785,), (2786,))
Model: "model_4"
__________________________________________________________________________________________________
 Layer (type)                   Output Shape         Param #     Connected to                     
==================================================================================================
 input_4 (InputLayer)           [(None, 277, 76)]    0           []                               
                                                                                                  
 conv_1 (Conv1D)                (None, 269, 9)       6165        ['input_4[0][0]']                
                                                                                                  
 conv_2 (Conv1D)                (None, 261, 9)       738         ['conv_1[0][0]']                 
                                                                                                  
 conv_3 (Conv1D)                (None, 251, 10)      1000        ['conv_2[0][0]']                 
                                                                                                  
 input_6 (InputLayer)           [(None, 26, 1000)]   0           []                               
                                                                                                  
 flatten_11 (Flatten)           (None, 2510)         0           ['conv_3[0][0]']                 
                                                                                                  
 lstm (LSTM)                    (None, 26, 128)      578048      ['input_6[0][0]']                
                                                                                                  
 dense_1 (Dense)                (None, 435)          1092285     ['flatten_11[0][0]']             
                                                                                                  
 lstm_1 (LSTM)                  (None, 64)           49408       ['lstm[0][0]']                   
                                                                                                  
 z_mean (Dense)                 (None, 56)           24416       ['dense_1[0][0]']                
                                                                                                  
 z_log_var (Dense)              (None, 56)           24416       ['dense_1[0][0]']                
                                                                                                  
 dense_5 (Dense)                (None, 56)           3640        ['lstm_1[0][0]']                 
                                                                                                  
 lambda (Lambda)                (None, 56)           0           ['z_mean[0][0]',                 
                                                                  'z_log_var[0][0]']              
                                                                                                  
 dense_6 (Dense)                (None, 56)           3192        ['dense_5[0][0]']                
                                                                                                  
 concatenate (Concatenate)      (None, 112)          0           ['lambda[0][0]',                 
                                                                  'dense_6[0][0]']                
                                                                                                  
 dense_7 (Dense)                (None, 1024)         115712      ['concatenate[0][0]']            
                                                                                                  
 dropout_2 (Dropout)            (None, 1024)         0           ['dense_7[0][0]']                
                                                                                                  
 dense_8 (Dense)                (None, 1024)         1049600     ['dropout_2[0][0]']              
                                                                                                  
 dropout_3 (Dropout)            (None, 1024)         0           ['dense_8[0][0]']                
                                                                                                  
 dense_9 (Dense)                (None, 512)          524800      ['dropout_3[0][0]']              
                                                                                                  
 dropout_4 (Dropout)            (None, 512)          0           ['dense_9[0][0]']                
                                                                                                  
 dense_10 (Dense)               (None, 1)            513         ['dropout_4[0][0]']              
                                                                                                  
==================================================================================================
Total params: 3,473,933
Trainable params: 3,473,933
Non-trainable params: 0
__________________________________________________________________________________________________
…
