…
Train, Val, Test shapes - y: ((21039,), (4508,), (4509,))
Model: "model_4"
__________________________________________________________________________________________________
 Layer (type)                   Output Shape         Param #     Connected to                     
==================================================================================================
 input_6 (InputLayer)           [(None, 26, 1000)]   0           []                               
                                                                                                  
 conv1d (Conv1D)                (None, 26, 32)       128032      ['input_6[0][0]']                
                                                                                                  
 input_4 (InputLayer)           [(None, 277, 76)]    0           []                               
                                                                                                  
 max_pooling1d (MaxPooling1D)   (None, 13, 32)       0           ['conv1d[0][0]']                 
                                                                                                  
 conv_1 (Conv1D)                (None, 269, 9)       6165        ['input_4[0][0]']                
                                                                                                  
 input_5 (InputLayer)           [(None, 978, 2)]     0           []                               
                                                                                                  
 conv1d_1 (Conv1D)              (None, 13, 64)       16448       ['max_pooling1d[0][0]']          
                                                                                                  
 conv_2 (Conv1D)                (None, 261, 9)       738         ['conv_1[0][0]']                 
                                                                                                  
 flatten (Flatten)              (None, 1956)         0           ['input_5[0][0]']                
                                                                                                  
 max_pooling1d_1 (MaxPooling1D)  (None, 7, 64)       0           ['conv1d_1[0][0]']               
                                                                                                  
 conv_3 (Conv1D)                (None, 251, 10)      1000        ['conv_2[0][0]']                 
                                                                                                  
 dense_2 (Dense)                (None, 256)          500992      ['flatten[0][0]']                
                                                                                                  
 conv1d_2 (Conv1D)              (None, 7, 96)        73824       ['max_pooling1d_1[0][0]']        
                                                                                                  
 flatten_11 (Flatten)           (None, 2510)         0           ['conv_3[0][0]']                 
                                                                                                  
 dropout (Dropout)              (None, 256)          0           ['dense_2[0][0]']                
                                                                                                  
 max_pooling1d_2 (MaxPooling1D)  (None, 4, 96)       0           ['conv1d_2[0][0]']               
                                                                                                  
 dense_1 (Dense)                (None, 435)          1092285     ['flatten_11[0][0]']             
                                                                                                  
 dense_3 (Dense)                (None, 128)          32896       ['dropout[0][0]']                
                                                                                                  
 global_max_pooling1d (GlobalMa  (None, 96)          0           ['max_pooling1d_2[0][0]']        
 xPooling1D)                                                                                      
                                                                                                  
 z_mean (Dense)                 (None, 56)           24416       ['dense_1[0][0]']                
                                                                                                  
 z_log_var (Dense)              (None, 56)           24416       ['dense_1[0][0]']                
                                                                                                  
 dropout_1 (Dropout)            (None, 128)          0           ['dense_3[0][0]']                
                                                                                                  
 dense_5 (Dense)                (None, 56)           5432        ['global_max_pooling1d[0][0]']   
                                                                                                  
 lambda (Lambda)                (None, 56)           0           ['z_mean[0][0]',                 
                                                                  'z_log_var[0][0]']              
                                                                                                  
 dense_4 (Dense)                (None, 56)           7224        ['dropout_1[0][0]']              
                                                                                                  
 dense_6 (Dense)                (None, 56)           3192        ['dense_5[0][0]']                
                                                                                                  
 concatenate (Concatenate)      (None, 168)          0           ['lambda[0][0]',                 
                                                                  'dense_4[0][0]',                
                                                                  'dense_6[0][0]']                
                                                                                                  
 dense_7 (Dense)                (None, 1024)         173056      ['concatenate[0][0]']            
                                                                                                  
 dropout_2 (Dropout)            (None, 1024)         0           ['dense_7[0][0]']                
                                                                                                  
 dense_8 (Dense)                (None, 1024)         1049600     ['dropout_2[0][0]']              
                                                                                                  
 dropout_3 (Dropout)            (None, 1024)         0           ['dense_8[0][0]']                
                                                                                                  
 dense_9 (Dense)                (None, 512)          524800      ['dropout_3[0][0]']              
                                                                                                  
 dropout_4 (Dropout)            (None, 512)          0           ['dense_9[0][0]']                
                                                                                                  
 dense_10 (Dense)               (None, 1)            513         ['dropout_4[0][0]']              
                                                                                                  
==================================================================================================
Total params: 3,665,029
Trainable params: 3,665,029
Non-trainable params: 0
__________________________________________________________________________________________________
…
